examples/chkpt/dcn.pt (torch, 430597 bytes, 11 tensors)

weight f4 [1, 5]
00000000: 7c07 51bf 8870 5f3f ed1a e13e 97f3 8a3f
00000010: 8e16 22bf
-0.81652045 0.87281084 0.43965855 1.0855588 -0.63315666

0 f4 [5]
00000000: 409b 87bd 9d29 6e3d d621 993d 2019 503d
00000010: e9af 82bd
-0.066214085 0.058145154 0.07477157 0.05080521 -0.063812084

weight f4 [1, 4]
00000000: aac7 8dbe 88ca b2be 94d4 cd3e 80c4 8b3b
-0.27691394 -0.34920144 0.40201247 0.004265368

0 f4 [4]
00000000: 0000 0000 0000 0000 0000 0000 0000 0000
0.0 0.0 0.0 0.0

weight f4 [1, 5]
00000000: 8195 dabe ea4d 1fbe 8cab d03e fbb8 6ebd
00000010: 4faa 003e
-0.42692187 -0.15557066 0.4075588 -0.05828188 0.12564968

weight f4 [1, 4]
00000000: 042d fb3e fe30 e93e fefa c43e 6036 85bc
0.49057782 0.4554519 0.38472742 -0.01626128

weight f4 [10794, 1]
00000000: 7323 d2a6 053c e6a5 a6db f4a5 d432 d1a5
00000010: b9cc 5827 1b85 9a3b f314 4e26 84d8 81bc
00000020: 6392 9b3d d91c c025 6770 3c3c 9f7a cbba
00000030: 99e5 e926 6933 213d 2f47 2bbd 1ccf a53d
00000040: dbf3 0dbd dfe8 95bc eb9d a826 bd79 243d
00000050: caa0 123d 69aa ac3c 65db d1bc 0d69 55bc
00000060: ed1a 9426 ba7c b526 a05c 29bd df32 be3b
00000070: 66a0 21bd a41f 5e3c 2c65 e4bc e6b6 3abd
00000080: ef9c 8fbd 8483 f326 9f90 e3a6 e903 2f27
00000090: 084a 14bd 2b88 3abd 0250 0626 05c6 63bc
000000a0: 4731 61bd c4f4 353d 2224 2ebd 2b34 1f3d
000000b0: 45c7 9725 4d20 5425 39da 48bc 60c7 6fa6
000000c0: df7c 8abc 5598 30bd 76e2 f5bb 0c94 733d
000000d0: 26d7 83bd 37cc 70a4 c9fd d1a6 76a7 ec3b
000000e0: 6615 ac3c 1b87 f5a6 59c6 193c 2bd8 b23d
000000f0: 3ff6 8525 d893 01a6 1a9a 4e25 c562 d4bc
00000100: a8af 263d f5ed 16bd 7efe 8126 6bf9 333d
00000110: e162 ef26 e012 0327 ba66 12ba 9ebc 6224
00000120: a597 303d aed1 bdbc 6140 53bd b22e 293d
00000130: 6c11 0726 31aa 7626 c102 07a6 aa5e 6ea6
00000140: df79 2dbd 8f4e 29bd e9b1 b1a3 2640 90a6
00000150: d656 eebd ef77 1b27 1dac a33c 4628 383d
00000160: 0ae5 55a6 8bab 7fbd d6ce 62a4 303b 933d
00000170: 17f5 8c25 2bc4 533c 15ad b83c 54c2 26bd
00000180: d446 e4a6 8fb2 223c fe50 13bd 4b4c eabc
00000190: d579 2a3d 608c b125 a196 6d27 9733 4325
000001a0: 96da 9d23 5019 8dbc eaea 833d 4625 e6bc
000001b0: 4994 d926 f6e1 dcbc 7835 03a7 fa77 87a6
000001c0: 0ad6 853c a096 113d ed2d 76a6 7c4a 17bd
000001d0: c96c f9a5 fac0 8723 b114 21bd 8c0e 3a3d
000001e0: 5fe0 81a6 6053 2a24 dccc aabc 5385 97a6
000001f0: 2f4c 113d 882e f4a6 6e73 293d c3ea 2c3d
00000200: 11fc 0126 e2f2 f63b cac8 d93c 1b19 90bc
00000210: 25af a43c e561 00a6 896e 23bd 7cac 3cba
00000220: 00ee b025 74a1 b6bc c347 7fa7 d736 14bd
00000230: 42e9 6c3a 8896 2d3d 296b 373d 3145 89a5
00000240: 4d07 84bd 7986 693c 29fb 26bd 1095 4fa6
00000250: e46e 243b 271d 80a5 4faf 3aa5 6305 743d
00000260: 6919 883d 6cb0 0626 d55b e5a5 06aa cfbd
00000270: 1eba 353c 69c2 0bbd d3f5 bf3c c89c 003e
00000280: 8ba6 b426 6909 88bd 3e80 28bd 4560 6925
00000290: d223 8927 86da 153d 6f86 2b3d 8357 58bd
000002a0: 2cfd aca4 e845 4f27 719c 833c 31a6 683d
000002b0: a0b7 123d 2e14 353d 79a9 1a3d 16d8 5aa5
000002c0: 6622 85b9 384b 41bc 7cdd 96a6 0a49 94bb
000002d0: fac8 2a3d 3116 d03c 9cc2 7f27 f69b 3b26
000002e0: 7aa2 8cbd 722c ed23 2e3f 47a7 48a2 03a6
000002f0: 76ff 33bd 458d febc b782 30bd 5c47 d426
00000300: e841 42bd c6ef 2f3d be14 ca24 cb9f f425
00000310: 043b 85bc 6213 4f27 7825 f1a6 84dc ffa3
00000320: 65aa fe25 7dbc d03a 5356 b423 3741 7e27
00000330: e69e 29bd 9075 8a3d fb2e 2bbd df0d 433b
00000340: b4ec f83b 5df1 9aa6 a5e7 c1a2 3cad da3c
00000350: 9148 cebb e16b 1dba d321 03a7 76cc 623d
00000360: 9f14 1726 ba73 2b3d 1924 2d3d 0171 1ba5
00000370: e898 59a4 56b4 2fbd d9cd 49a7 599b 32a5
00000380: 8e7a a3bc fdb0 2abd 3156 5524 c4b7 603d
00000390: 7e6c b4a5 1702 40a7 38d4 daa6 1278 1e3d
000003a0: 0b62 9ba6 802c 1626 044e 8326 cf70 943d
000003b0: efc1 963c bfe4 30bc 5044 ed3c ae5b d3bb
000003c0: cb21 8ca6 5467 0626 0c1a 0c27 f5c5 1b3d
000003d0: 22a5 183d 1a36 57a6 4146 1b3d 0e92 0527
000003e0: 215d 0abb a0f5 3527 0d6d 9726 0b13 1227
000003f0: 7ae5 8bbd 736a b13d f29a 2024 f416 343d
-1.4581286e-15 -3.993931e-16 -4.2476092e-16 -3.6290163e-16 3.0087002e-15 0.0047155744 7.1499e-16 -0.015850313
0.075962804 3.3326239e-16 0.011501408 -0.0015524215 1.6229855e-15 0.03935567 -0.041815933 0.080961436
-0.034656387 -0.018299518 1.1700146e-15 0.04015516 0.03579787 0.021077352 -0.02561731 -0.013025534
1.0276861e-15 1.2593205e-15 -0.0413481 0.005804404 -0.03945961 0.013557348 -0.027880274 -0.04558458
-0.070123546 1.689716e-15 -1.5790489e-15 2.4288248e-15 -0.036203414 -0.045540016 4.659902e-16 -0.013902192
-0.054978635 0.04442288 -0.042514928 0.03886811 2.6329355e-16 1.8399013e-16 -0.01225906 -8.3189986e-16
-0.016905246 -0.043114025 -0.007503803 0.05946736 -0.06437521 -5.221468e-17 -1.4571077e-15 0.0072221113
0.021006297 -1.703691e-15 0.009385669 0.08732637 2.3238685e-16 -4.495623e-16 1.7919863e-16 -0.025926003
0.040694863 -0.036848027 9.020153e-16 0.043939035 1.6610758e-15 1.8190134e-15 -0.00055847655 4.9165703e-17
0.04311337 -0.023171272 -0.05157507 0.041304298 4.6861145e-16 8.557905e-16 -4.6841266e-16 -8.270113e-16
-0.042352553 -0.041334685 -1.9265726e-17 -1.0009395e-15 -0.116376564 2.1575587e-15 0.019979531 0.044960283
-7.4209626e-16 -0.062419455 -4.9181135e-17 0.071890235 2.4452208e-16 0.012925188 0.02254347 -0.04071267
-1.5839876e-15 0.009930267 -0.035965912 -0.028600832 0.041620094 3.0799727e-16 3.2972013e-15 1.6931033e-16
1.7114549e-17 -0.017223984 0.06441291 -0.028093945 1.5097593e-15 -0.026963215 -1.8208887e-15 -9.400026e-16
0.016337413 0.035544038 -8.5410636e-16 -0.03693627 -4.326833e-16 1.4718458e-17 -0.039326373 0.04542403
-9.011989e-16 3.6933495e-17 -0.020849638 -1.0513867e-15 0.035473045 -1.6943513e-15 0.041369848 0.042216074
4.509748e-16 0.007536278 0.026585001 -0.017590096 0.020103047 -4.4541593e-16 -0.039900336 -0.0007197333
3.0692408e-16 -0.022293784 -3.542726e-15 -0.03618511 0.00090374437 0.042379886 0.04477993 -2.3812598e-16
-0.06446705 0.014253252 -0.04076687 -7.201957e-16 0.002509051 -2.2224215e-16 -1.6192325e-16 0.05957545
0.066454716 4.6729685e-16 -3.9787395e-16 -0.10139851 0.011091737 -0.03412095 0.023432648 0.12559807
1.2535151e-15 -0.0664242 -0.041137926 2.0242146e-16 3.8063975e-15 0.036585353 0.041876253 -0.052817833
-7.5022e-17 2.8764917e-15 0.016065808 0.056799117 0.03581965 0.044208698 0.037759278 -1.8981699e-16
-0.00025393366 -0.011797719 -1.0468374e-15 -0.0045253085 0.041695572 0.025401207 3.5493857e-15 6.5090024e-16
-0.068669274 2.5714415e-17 -2.7651048e-15 -4.5669687e-16 -0.0439448 -0.031073222 -0.04309341 1.4729797e-15
-0.047426134 0.042953275 8.7638674e-17 4.2435533e-16 -0.016263492 2.8737528e-15 -1.673289e-15 -2.7740547e-17
4.417744e-16 0.0015925315 1.9552199e-17 3.5284934e-15 -0.041411303 0.067607045 -0.04179285 0.0029762906
0.0075965766 -1.0751318e-15 -5.255802e-18 0.026693933 -0.0062952717 -0.000600515 -1.8198238e-15 0.05537077
5.2416596e-16 0.041858412 0.042270754 -1.3482394e-16 -4.718389e-17 -0.04289659 -2.8005944e-15 -1.5491673e-16
-0.0199559 -0.041672695 4.626002e-17 0.054862753 -3.129854e-16 -2.6646485e-15 -1.5184311e-15 0.038688727
-1.078186e-15 5.2102013e-16 9.111097e-16 0.07248079 0.018403022 -0.010796725 0.028963238 -0.006450138
-9.723611e-16 4.6630625e-16 1.9443023e-15 0.038030583 0.037266858 -7.466643e-16 0.037908796 1.8536634e-15
-0.0021112638 2.525195e-15 1.0507288e-15 2.0271893e-15 -0.068308786 0.08662882 3.4825713e-17 0.043967202

weight f4 [1, 12]
00000000: faac d73c a85b 38be 0fdc fdbc a109 1c3d
00000010: 3a5d 30be f32c e53d e9a2 11be 0d88 d6bc
00000020: 259b f1bd ccee 2c3e 1302 1d3d 3ce2 4fb9
0.026327599 -0.18003714 -0.030988721 0.03809512 -0.17223063 0.11190214 -0.14222302 -0.026187921
-0.117971696 0.16887969 0.038332056 -0.00019825337

weight f4 [91661, 1]
00000000: f384 e8a5 df69 0226 8345 0fa6 3342 daa5
00000010: ba4e 163d 2a8b b325 9b39 0126 2b84 1c3d
00000020: fad2 1e26 0afd 4ca3 fa89 ea25 35c9 05a6
00000030: a0a2 6724 bda1 273d 40d4 fca5 5718 72a4
00000040: c13a 29a4 41be 31a4 ba62 93a5 edf4 55a5
00000050: 80df 3b25 0e63 33a4 6c5a 323d 747a 7ba4
00000060: e7e4 06a6 c746 263d 8dc1 37bd f658 1abd
00000070: b800 273d 75dd f0a5 e455 5224 6f53 373d
00000080: 76ba 29a2 f0ca eda3 bb20 c723 cb83 e425
00000090: f0d1 05a6 b89e e0a5 7eb9 7224 959a 21a6
000000a0: 4ccf 1f26 2705 f4bc c1ea 3a24 3858 6ca4
000000b0: 81d9 37a5 3d13 c4a5 a8c6 c6a5 f87a 7224
000000c0: 7496 123d 7367 8d25 049d 5524 9724 4425
000000d0: cf96 163d 8b9a 70a4 fde0 df25 4f12 19a4
000000e0: 1d16 38bd 4bb6 28bd 24c2 03a6 e460 7f23
000000f0: 0018 7aa5 d6d0 04a6 86b5 be25 3582 66a4
00000100: 24fe a225 7a06 163d afbf 1726 6a84 5a24
00000110: ce59 36a4 590c 19a4 da16 223d ce15 b125
00000120: e2d2 0626 834e 1dbd ed8d e6a5 5b3f 28bd
00000130: fb65 0c25 5193 fba5 97c7 1abd 2116 07a6
00000140: 89a9 2725 22b2 b424 efe2 dc25 6e7f 4b25
00000150: 848a cba4 2a13 1e26 c0ea f825 7ae9 08bd
00000160: 01c1 eaa3 3779 0326 e310 aea5 861f 1425
00000170: 716c 2bbd 4a08 0626 7072 233d 6994 123d
00000180: 329b 72a4 3a54 b9a4 9cde 4ca4 5a4e 6ca4
00000190: 43f3 2a3d 3b04 f825 6b0b 2fa4 a937 0626
000001a0: 2c5b 0e3d c3dd 6424 cf63 84a5 885c 29bd
000001b0: 18be dda5 c534 dca5 3869 183d 498d fe25
000001c0: 245b 18bd a195 3824 b49d de23 4c98 253d
000001d0: 246a 7224 7c13 1b3d e36e 5024 0cc3 0d24
000001e0: e859 6e24 0a5a 4ba4 7ff7 e325 0d6e 1b26
000001f0: ea67 ffa5 43d1 fea4 50ab 9825 bccd 073d
00000200: 6bd1 1ebd 281d 13bd 4999 1fa4 867b 2d24
00000210: df18 92a3 fd16 10a3 0a8b 0626 cfe5 80a4
00000220: 3bbe cda5 0835 ca24 091a 6524 251c 0526
00000230: 3e55 3a24 8130 d525 53ae 1bbd a60d 163d
00000240: 11fb 183d 086b 213d 7f39 ce25 e295 24bd
00000250: ea9a af25 c78a 72a4 ba3d 0f26 6e2c 7625
00000260: 4d0c 1da4 a801 0d25 c843 03a6 665d 7024
00000270: b3f1 6324 cb38 0923 9edd 22bd fad3 e325
00000280: b9a9 8aa5 af79 d3a4 b7a6 19bd bdbc 6c23
00000290: 47ff 6ea4 44dd 8ba5 5957 23bd 0aa4 173d
000002a0: c26b 05a6 96a0 a6a3 35f5 c5a5 68b0 5824
000002b0: dd2d 6c24 8b95 88a5 1b17 71a3 3d5f d925
000002c0: 40e0 173d a635 50a4 d023 4ba4 d55f 08bd
000002d0: 5d21 103d 55b4 06a6 6885 33a5 d9fe 3024
000002e0: e958 43a4 934d f524 7a04 26a5 0949 1dbd
000002f0: e913 0726 ac8e 1b3d 3046 7024 babe c625
00000300: 031e 19bd 7f66 a625 7471 183d e8a2 29a5
00000310: a373 18a6 80bb 13bd aa38 fc3c f161 1a24
00000320: 0e15 0626 0b2a e425 a8f8 1b25 3dc9 0026
00000330: 0df1 1925 0a1d 3da4 4910 1825 1f2a 3b24
00000340: 72bb b825 4384 e322 1870 51a5 d21f 9924
00000350: 69c7 5f25 f6f9 c7a5 11be 72a4 be1d 15a3
00000360: 5959 ad25 dcfd ec25 dd79 06a6 c734 d425
00000370: 96c5 eba5 04fc 8c25 c46a 34a4 1f08 0126
00000380: 3f69 b024 6421 0726 8a20 2f24 3b08 eea3
00000390: 64ce b1a4 fba8 03a6 de82 0b25 e6de 173d
000003a0: f2ef 8023 a722 c824 ff56 e9a5 7643 a925
000003b0: dc79 2424 098e 3924 628d 1aa4 3fff c823
000003c0: 25b9 233d ea35 6024 7675 dc25 8061 bca5
000003d0: bc1e 19bd a885 153d 9131 0426 bbd0 2824
000003e0: 781c 01a5 465b bba5 136d 6825 6569 253d
000003f0: 6e4a 893d 180f 9f25 832f 70a4 415c d425
-4.0335675e-16 4.524629e-16 -4.97073e-16 -3.786183e-16 0.036696173 3.1145851e-16 4.4833936e-16 0.038211983
5.510319e-16 -1.1112445e-17 4.0686026e-16 -4.641633e-16 5.022789e-17 0.04092573 -4.3858858e-16 -5.2496002e-17
-3.66958e-17 -3.8541908e-17 -2.5567335e-16 -1.8557789e-16 1.6295389e-16 -3.889834e-17 0.043543264 -5.453067e-17
-4.680081e-16 0.040594842 -0.04486232 -0.037682496 0.04077217 -4.1783429e-16 4.5609243e-17 0.044757303
-2.3002482e-18 -2.5781539e-17 2.1589485e-17 3.9641002e-16 -4.6428163e-16 -3.8965358e-16 5.2632503e-17 -5.6067594e-16
5.5445146e-16 -0.029787613 4.0531165e-17 -5.1249067e-17 -1.5946413e-16 -3.4013616e-16 -3.448214e-16 5.2579544e-17
0.035788015 2.45297e-16 4.632001e-17 1.7012687e-16 0.036764916 -5.2172607e-17 3.8836792e-16 -3.3192094e-17
-0.044942964 -0.041189473 -4.5712865e-16 1.3844095e-17 -2.1692175e-16 -4.6079725e-16 3.308275e-16 -4.998359e-17
2.8274733e-16 0.03662727 5.264843e-16 4.7383374e-17 -3.9541027e-17 -3.3187045e-17 0.039572574 3.071938e-16
4.677639e-16 -0.038404953 -3.9994813e-16 -0.041076045 1.2177617e-16 -4.3641385e-16 -0.037788 -4.6867524e-16
1.4542382e-16 7.8364325e-17 3.8317693e-16 1.7650618e-16 -8.827187e-17 5.4843234e-16 4.3180215e-16 -0.033425786
-2.5452071e-17 4.561403e-16 -3.0195631e-16 1.2847634e-16 -0.041851465 4.6501823e-16 0.039904058 0.035786066
-5.260684e-17 -8.0373646e-17 -4.4424006e-17 -5.124071e-17 0.0417359 4.302401e-16 -3.7956747e-17 4.6566023e-16
0.034754917 4.962746e-17 -2.2965983e-16 -0.04134801 -3.8466201e-16 -3.8199674e-16 0.03720972 4.4157715e-16
-0.037196293 4.002538e-17 2.4136078e-17 0.040428445 5.256529e-17 0.03786038 4.5196735e-17 3.0739712e-17
5.1684177e-17 -4.4094874e-17 3.9545933e-16 5.3925574e-16 -4.4305864e-16 -1.10509444e-16 2.6483883e-16 0.033155188
-0.038773935 -0.035916477 -3.4607467e-17 3.7618024e-17 -1.5839885e-17 -7.811124e-18 4.667902e-16 -5.590046e-17
-3.5690736e-16 8.7693374e-17 4.9678512e-17 4.618179e-16 4.0404524e-17 3.6982478e-16 -0.038008045 0.03663411
0.03734881 0.039408714 3.5774264e-16 -0.040182002 3.0462635e-16 -5.2592934e-17 4.9696747e-16 2.1352152e-16
-3.4054367e-17 1.2230362e-16 -4.5541616e-16 5.2120816e-17 4.9427506e-17 7.438811e-18 -0.039762132 3.9521864e-16
-2.4054193e-16 -9.1712803e-17 -0.037512507 1.28335525e-17 -5.1824252e-17 -2.4262592e-16 -0.039878223 0.037021674
-4.6289684e-16 -1.8065767e-17 -3.434021e-16 4.6986956e-17 5.121319e-17 -2.3693574e-16 -1.3069529e-17 3.7708035e-16
0.037079096 -4.5148252e-17 -4.4048943e-17 -0.033294518 0.035188068 -4.6734985e-16 -1.5570975e-16 3.837978e-17
-4.2359195e-17 1.0638323e-16 -1.4399722e-16 -0.03839973 4.6864517e-16 0.03797786 5.2101155e-17 3.4476766e-16
-0.037382137 2.8865864e-16 0.037217572 -1.4713608e-16 -5.289231e-16 -0.036067486 0.030788738 3.3476387e-17
4.6519124e-16 3.9580185e-16 1.3528355e-16 4.468165e-16 1.3352306e-16 -4.100744e-17 1.3189416e-16 4.058484e-17
3.204593e-16 6.166851e-18 -1.8165839e-16 6.640708e-17 1.940973e-16 -3.4690377e-16 -5.2636378e-17 -8.083604e-18
3.007126e-16 4.1111496e-16 -4.6655745e-16 3.68119e-16 -4.089989e-16 2.44569e-16 -3.9121712e-17 4.476687e-16
7.650613e-17 4.6882787e-16 3.7974638e-17 -2.5807497e-17 -7.711115e-17 -4.5678766e-16 1.2100668e-16 0.037077807
1.3979409e-17 8.679488e-17 -4.0478008e-16 2.936254e-16 3.566505e-17 4.023579e-17 -3.3513183e-17 2.1792144e-17
0.03997149 4.8617924e-17 3.824351e-16 -3.267887e-16 -0.037382826 0.036504418 4.5863875e-16 3.6605995e-17
-1.1198612e-16 -3.2501178e-16 2.0159748e-16 0.040383715 0.067036495 2.759233e-16 -5.2081948e-17 3.6838651e-16

weight f4 [1, 6]
00000000: a04b dbbe 6ac2 fe3e a7fa 023e 5918 533f
00000010: 4eed 9ebd cbcb 59be
-0.42831135 0.497577 0.12790929 0.82459027 -0.07760106 -0.21269147

weight f4 [1, 5]
00000000: 4fca bfbe 1080 d33d a416 783e 7b6f 98be
00000010: f4ed 843e
-0.37459037 0.1032716 0.24227387 -0.29772553 0.25962794
