examples/chkpt/fnn.pt (torch, 559270 bytes, 14 tensors)

weight f4 [34376, 4]
000000 b6 27 9e bc 59 c2 9c 3c 7d e3 07 3c 35 9a a7 3b
       -0.019306045 0.019135641 0.0082939835 0.0051148185
000010 59 02 12 3d f8 5f b0 bc 90 0d 9b bc 30 ab 28 bd
       0.03564677 -0.021530136 -0.018927366 -0.041178882
000020 f1 29 90 bc 1a 30 86 3c 58 18 d7 3c 6e 99 0d bc
       -0.017598124 0.016380358 0.026256725 -0.0086425375
000030 57 bb dd 3c 69 e3 ae bb 23 56 58 bb 54 58 ee bc
       0.02706687 -0.005337168 -0.0033010326 -0.029094853
000040 d8 0d 21 bd af 80 b3 3c ac ed 3f bc b5 0b 00 3d
       -0.039319843 0.021911947 -0.01171438 0.031261165
000050 90 92 f8 ba 9e 34 4c bd 26 b9 e7 3c cb 06 12 3d
       -0.0018964577 -0.049854867 0.028286528 0.03565101
000060 67 7c 2a 3d ef 41 20 3d 5d c7 d6 bc 55 3d a8 bc
       0.041622546 0.03912538 -0.02621811 -0.020537058
000070 e5 f9 50 bc 9d 89 ef bc 30 2e 0f bd a0 ab 1f bc
       -0.012754892 -0.029240424 -0.034956157 -0.009745508
000080 dc 87 3d 3d 55 1e 3b bd fe 32 16 bd b8 00 2b bd
       0.046272144 -0.045683224 -0.036669724 -0.041748732
000090 ef 5b 81 3d 48 ce 89 ba 84 f8 5b bd 79 c7 18 bd
       0.06316363 -0.0010513747 -0.0537038 -0.037299607
0000a0 b5 51 1a 3d f2 54 77 bc 4d e6 35 bd e9 18 9c bc
       0.03767558 -0.015095936 -0.044409085 -0.019054847
0000b0 88 6f 7d 3b a4 1a a9 bb 11 91 11 bd 2b db 98 3a
       0.0038671214 -0.0051606465 -0.035538737 0.0011661997
0000c0 5f a0 41 bd b4 47 cf 3b 98 59 24 bb 66 0f 0d 3d
       -0.047272082 0.0063256864 -0.0025077816 0.034438513
0000d0 d8 f0 e0 3b 3e e6 e5 3b 83 dc 1d bc 46 d9 10 bd
       0.0068646483 0.0070159724 -0.009635094 -0.035363458
0000e0 a3 75 ee bb 67 2e 9d 3c ed 83 e9 3c cf 70 8c bc
       -0.007277207 0.019187165 0.02850529 -0.017143635
0000f0 29 3e c6 bc bd 00 52 3d 17 97 27 bd 5f 5c 27 3d
       -0.024199562 0.051270235 -0.040915575 0.040859576
000100 2f 0b 4b bd 5a 39 0e 3d 0d 94 f7 3c 3e 51 05 3d
       -0.049571212 0.034722663 0.030221963 0.03254818
000110 cd 01 6d bd d2 0b ef bd 75 a5 98 3d 00 1c 0a 3e
       -0.057863045 -0.116721764 0.074534334 0.13487244
000120 77 b7 7c 3c 33 38 7d 3d b2 86 8b bd d2 d5 6b 3d
       0.015424601 0.061821174 -0.068128005 0.05757696
000130 c9 a9 f7 bc e0 40 fd 3c 50 53 e0 bc f7 7c 7a 3d
       -0.030232327 0.030914724 -0.027383476 0.061154332
000140 62 26 9c bc b1 c1 59 3d 42 aa 53 bd 45 ac 87 3d
       -0.019061271 0.053163234 -0.051676042 0.06624655
000150 34 de e8 3b ce e2 de 3b e5 42 0a 3a ae 79 98 bb
       0.007106567 0.0068019396 0.000527425 -0.004653177
000160 6c dd 46 3c dc 41 f8 bc f9 74 b7 3c 1f 15 63 bd
       0.012137752 -0.030304842 0.022394644 -0.055440065
000170 e2 62 98 bd 9a d3 47 bc 2f 77 09 3d ec 44 6c 3d
       -0.074407354 -0.012196446 0.033560928 0.057682917
000180 ac ca 9e bc 7b b2 0c 3b fe 91 b5 3a f9 1b de 3c
       -0.01938375 0.0021468687 0.0013852713 0.027112948
000190 cf fd 13 3d 28 6d 34 bb b5 21 dd bc 2f b8 45 bb
       0.036130723 -0.0027530883 -0.026993612 -0.0030169596
0001a0 7f 39 30 3d ee 79 b6 bc ad 11 e2 bc 15 bb 0f bd
       0.043023583 -0.022274937 -0.02759632 -0.035090525
0001b0 cf 4a 60 3c e0 6b 05 3d d2 3e a0 bb fa b3 24 bd
       0.013689711 0.03257358 -0.0048903013 -0.0402107
0001c0 9d 31 73 bc 38 a3 cb 3c 07 44 02 bd 36 14 db 3c
       -0.014843372 0.024858102 -0.031803157 0.026743036
0001d0 23 bb 82 bb 1c a8 25 3c 74 42 d0 39 6b e8 51 bb
       -0.0039895936 0.010110881 0.00039722363 -0.00320294
0001e0 c9 e5 17 3d 2d d1 11 bc c6 0e 0c bd 49 de 59 bc
       0.037084375 -0.008899969 -0.034193777 -0.013297626
0001f0 2f 72 33 3a ff 8d cb bc c7 47 2a 3d 47 aa 8e 3c
       0.0006845323 -0.024847982 0.04157236 0.017415179
000200 bf a0 a8 3c e1 cc 3f bd 17 9a 6e 3c c4 18 b2 bc
       0.020584462 -0.046826247 0.014563105 -0.021740325
000210 2c 1a 2e bd c5 79 b4 3c 8e 1d 43 3c 8a 81 2a 3d
       -0.04250543 0.02203072 0.011908902 0.041627444
000220 e9 fa 0d 3d 0e 05 9e bc 03 f4 6e 3c bc 89 a0 bc
       0.034663115 -0.01928952 0.014584544 -0.019596927
000230 44 e1 07 bd d3 3e de 3c 4f 59 9c 3d e0 0f 19 3d
       -0.033173814 0.027129566 0.07634222 0.037368655
000240 ac c3 c7 bd f7 21 39 bb b6 f0 95 3d de 1d 97 3d
       -0.09754118 -0.0028249004 0.073213026 0.073787436
000250 fb 32 d5 bc 3a 25 ae 3c fe 7d 26 3c b0 3c 91 3c
       -0.026025286 0.021257985 0.010161875 0.017729133
000260 4e 9d 18 3c 18 fc 76 bd 97 83 6f bd 19 1b fb 3c
       0.009314848 -0.06029901 -0.058475103 0.03065257
000270 4d 84 c3 3c 94 82 c5 bc 1d 84 39 3c 53 0e 26 bc
       0.023866797 -0.024110116 0.011323002 -0.010135251
000280 1f 2f 83 bc a1 21 81 bc ed dc 22 3d 30 ad f3 bc
       -0.01601368 -0.015763106 0.039761472 -0.029745668
000290 41 e7 71 bc 78 eb db bc fb 17 72 bc 05 95 80 bc
       -0.014764608 -0.026845679 -0.014776225 -0.015696058
0002a0 90 bd 63 3b a6 ea 5b bd 44 46 ab 3c ef c9 36 bd
       0.003475044 -0.053690575 0.020907529 -0.044626173
0002b0 75 f7 11 bd d2 4f 4a 3d a4 c7 1d bb d9 72 d2 3c
       -0.035636384 0.04939253 -0.0024075294 0.02568953
0002c0 aa 2e 2a 3c 5c 38 e7 bb ae 5b 37 bc 6c 2b 21 bc
       0.010387102 -0.007056279 -0.011191292 -0.009837013
0002d0 5d c6 38 bd 0c 2f 1a 3d ee bc 17 bc 80 ea 31 3d
       -0.04511105 0.037642524 -0.009261353 0.043436527
0002e0 eb 5e c3 bc da 03 9e 3d a5 f3 8f bc 67 36 05 3d
       -0.023848971 0.077155784 -0.017572233 0.032522585
0002f0 56 66 e3 3c dd 36 f9 bc 80 db 30 bd 79 8f 70 3c
       0.027758759 -0.030421669 -0.04317808 0.014682644
000300 42 9c 16 3c e8 52 99 3d ed 34 33 bd 0f 77 0d 3d
       0.009192528 0.07486516 -0.043751646 0.03453737
000310 d9 8f 45 bd 1c c8 a0 3c cf 9e 2a 3d ec da 49 bb
       -0.048232887 0.01962667 0.041655358 -0.0030800654
000320 78 c2 57 bd 74 d5 2f 3d 52 8d eb bc 9b 4e a4 3c
       -0.052675694 0.042928174 -0.02875391 0.020057013
000330 f5 79 ef 3c 67 62 28 bc b3 97 b8 bc e0 5b e0 bc
       0.029232958 -0.010277367 -0.022533273 -0.02738756
000340 bf b0 cc bb e5 80 02 3d be 7e 35 bc b1 64 86 3a
       -0.0062466557 0.031861205 -0.011077581 0.0010253397
000350 8b 96 d2 bc 33 6a 9d 3c f7 77 74 3d 95 3b 54 3c
       -0.02570655 0.019215679 0.05968472 0.012953659
000360 61 d2 73 3d 34 7a a6 bd cb ea 57 bc cb bb fc bc
       0.059526805 -0.08128777 -0.013178538 -0.030851265
000370 91 cd 1f bd 7f 28 81 3c d9 1f e3 bc 35 40 48 3d
       -0.039014403 0.01576638 -0.027725147 0.048889358
000380 0c 23 6e bd 16 71 1b 3c 2c 9d 69 ba c2 33 2f 3d
       -0.058138892 0.009487411 -0.0008911665 0.04277397
000390 84 4a 94 3c 9c 5a 12 bd 27 7e b5 bc 75 7f 86 3b
       0.018101938 -0.035730943 -0.02215488 0.0041045495
0003a0 32 2a 05 bc b9 1a 88 3d e5 49 c2 3c a0 73 d6 bc
       -0.008127736 0.06645722 0.023716876 -0.026178181
0003b0 27 ae bb bb ae 05 1f 3c 52 97 17 3d 40 26 f0 bc
       -0.0057275477 0.009705944 0.037009545 -0.029315114
0003c0 02 be e8 3c 39 3b 64 bd 58 65 23 bd f6 bf f0 3c
       0.028410915 -0.05572054 -0.03989157 0.02938841
0003d0 91 b5 c4 3c 59 34 06 3d 8d 87 70 bd fb 62 16 bc
       0.024012359 0.032764766 -0.05872302 -0.009178872
0003e0 d7 09 81 3c ba c2 38 3a af 25 cf bc 5a 9f 8a bc
       0.015751762 0.00070480595 -0.025286524 -0.016921688
0003f0 fe e8 10 3d 52 33 28 bd fe a6 48 3a 1b 9f 14 bd
       0.03537845 -0.041064568 0.00076542783 -0.036284547

weight f4 [4, 12]
000000 ab de 07 be ff 1e 7b 3a b1 3c c2 3d 4b a2 8a 3e
       -0.13268535 0.0009579509 0.09484232 0.27076945
000010 49 ff 95 be 7f ce a3 3d ed 64 08 3d 9b 8f 55 be
       -0.2929633 0.079983704 0.033299375 -0.20855562
000020 ea e2 fa 3c 30 ba 03 bd 03 1b 79 3d 70 e2 71 bd
       0.03062578 -0.032159984 0.060816776 -0.05905384
000030 0f 42 89 be ee 12 0c bd 46 1b 89 bc 49 47 4a 3e
       -0.2680821 -0.03419774 -0.016736638 0.19753756
000040 2d 7f 41 be 1a c3 b3 be a5 22 44 be 11 ab e2 bd
       -0.1889617 -0.35109788 -0.19153841 -0.110677846
000050 8e 23 1b bd 6e 5e 59 bd 7a c6 c8 bc 3f 0c 4a bd
       -0.037875704 -0.05306857 -0.024508704 -0.049328085
000060 3c 8c 16 3e 5a 20 91 be 87 89 b7 bd 50 a3 22 bd
       0.14701933 -0.28344995 -0.08961778 -0.03970653
000070 1b 54 4b be 43 2a 09 be 59 89 11 3c af 9d 9e 3e
       -0.19856302 -0.13395028 0.008882844 0.30979678
000080 85 e6 9e bc ef f3 d2 3d 0a f6 da bc 8e 24 0e 3b
       -0.01939703 0.10300433 -0.026728649 0.0021689269
000090 04 0a 4b 3d dc 7d 25 3e a2 7a 62 be f3 1d c4 3d
       0.0495701 0.16161293 -0.22117093 0.09576025
0000a0 eb 1e 79 bd de ca 6f 3e d9 ef 70 be a1 7a 09 3c
       -0.0608205 0.23417231 -0.23528995 0.008391053
0000b0 1b 34 9a bb 70 0f 73 bd 50 57 32 3c 6b 01 dd 3d
       -0.0047059185 -0.059340894 0.010885075 0.10791286

bias f4 [4]
000000 db 75 0b 3b fc ed 10 bb 65 d8 12 be a3 08 15 3e
       0.0021279964 -0.0022114506 -0.1434036 0.14554076

weight f4 [4]
000000 a7 fe 68 3f 7a d9 5c 3f 9f fe 8e 3f c3 90 67 3f
       0.9101357 0.8626934 1.1171454 0.90455264

bias f4 [4]
000000 f1 07 4a be 7e c3 93 3d 51 2a 7d be 0a d6 c0 be
       -0.19729592 0.072150216 -0.24723174 -0.376633

running_mean f4 [4]
000000 a8 e0 34 3a 18 0b 0b bc c9 47 14 be 7f cd 16 3e
       0.00068999315 -0.008486532 -0.14480509 0.14726828

running_var f4 [4]
000000 4c 1e fc 39 0a 27 05 3a 5e dc 09 3a 59 9a c4 39
       0.00048087758 0.00050793646 0.00052589725 0.0003749903

weight f4 [4, 4]
000000 84 82 ec 3e 60 3c 24 be c4 11 1a 3e 7d e0 12 3f
       0.46193326 -0.16038656 0.1504584 0.5737379
000010 f6 a5 a4 3e f8 4e 0c bc ac 21 b7 3e f4 13 bf 3e
       0.32157868 -0.0085637495 0.35767877 0.3731991
000020 50 58 1c be 2f 49 9c be ff 54 67 be 16 ff 66 be
       -0.15268064 -0.30524585 -0.22591017 -0.22558245
000030 f0 61 be be 2a 43 07 bf a5 30 c7 be 2a 85 c1 be
       -0.37184095 -0.5283686 -0.389043 -0.3779691

bias f4 [4]
000000 c8 b6 fb b9 37 a8 21 3b 90 71 4f bb 77 7e e0 b9
       -0.00048010633 0.0024666914 -0.0031653382 -0.00042818833

weight f4 [4]
000000 33 ab b6 3f e2 53 a3 3f 43 ca d5 3f c5 70 b2 3f
       1.4270996 1.2759974 1.670235 1.3940665

bias f4 [4]
000000 03 25 01 3f 5c 9f ff 3e 90 c2 70 3e f7 aa 56 3c
       0.504471 0.4992627 0.2351172 0.013102285

running_mean f4 [4]
000000 b6 37 70 3e 5f 69 91 3e 83 71 91 be c6 0b 03 bf
       0.23458752 0.28400704 -0.28406915 -0.5118984

running_var f4 [4]
000000 2f da 20 3e af 14 00 3e da 22 bc 3d d7 02 9d 3e
       0.1570823 0.1250789 0.09186335 0.3066623

weight f4 [1, 4]
000000 0c b6 12 bf 12 bd 4f bf ab 6e f4 3e 1b b7 2d 3f
       -0.5730903 -0.81147873 0.47740683 0.6785752
